tic_tac_toe_model.pth (torch, 43116 bytes, 6 tensors)

fc1.weight f4 [128, 9]
0	0x3e9b7b31	0.30367425
1	0x3eafb5d6	0.34318417
2	0x3ed7bcc4	0.42136204
3	0x3e3f3ac2	0.18674758
4	0xbe46e9f5	-0.19425185
5	0xbe51f36a	-0.20503011
6	0xbe2a9f22	-0.16662267
7	0x3ebb4cc5	0.36582008
8	0xbe504b7e	-0.20341298
9	0xbe4e0b98	-0.2012161
10	0x3df1a4a9	0.117989846
11	0xbe6ab9f1	-0.22922494
12	0x3e2d558d	0.16927166
13	0xbbe82f85	-0.007085743
14	0xbe930c72	-0.28720433
15	0xbeb09fc2	-0.34496886
16	0x3d567988	0.052361995
17	0x3eddec8c	0.43344533
18	0xbed69dd7	-0.41917297
19	0x3dac49eb	0.08412536
20	0xbe4e624d	-0.20154686
21	0xbd332515	-0.043736536
22	0x3e8949bb	0.26814064
23	0xbeb31650	-0.3497796
24	0xbeb4cd60	-0.3531294
25	0x3df3f6b4	0.11912289
26	0xbec0da70	-0.37666655
27	0x3e7e3e4f	0.24828456
28	0x3ea06a5e	0.31331152
29	0x3ea8f963	0.33002767
30	0xbe6302bc	-0.22169012
31	0x3ec0414d	0.3754982
32	0x3da925be	0.08259152
33	0xbd9ef4ac	-0.07761511
34	0x3eb0e800	0.34552002
35	0xbc7514f5	-0.01495861
36	0xbe9ea302	-0.3098374
37	0x3e63321e	0.22187087
38	0x3e105093	0.14093237
39	0x3dbc215d	0.09186051
40	0xbd6a304d	-0.05717497
41	0xbee5cef8	-0.44884467
42	0xbed9ced3	-0.42540607
43	0x3d28cfa4	0.041213647
44	0x3d3a5e90	0.045500338
45	0x3e4eee82	0.20208171
46	0xbe59a7e4	-0.21255451
47	0xbe9b9983	-0.30390558
48	0xbe489a9f	-0.19590233
49	0xbe0326af	-0.12807725
50	0xbee33afe	-0.44380945
51	0x3ebebedf	0.37254998
52	0x3e75b295	0.23993905
53	0x3e5bfc2c	0.21482915
54	0xbea4f660	-0.3221922
55	0x3e015f05	0.12633903
56	0x3e87c14d	0.26514664
57	0x3cdf26af	0.027240125
58	0x3e8d0fea	0.27551204
59	0x3eea864a	0.4580558
60	0x3ed45846	0.41473597
61	0x3e9bf711	0.30461934
62	0x3edcecbb	0.4314936
63	0xbd231919	-0.039818857
64	0x3e8604ad	0.26175442
65	0x3db6bce5	0.089227475
66	0x3ec85b64	0.39132226
67	0xbde8632d	-0.11347041
68	0x3ee2fff7	0.4433591
69	0xbde4a18f	-0.11163627
70	0x3ee57ff1	0.44824174
71	0x3ed31991	0.41230443
72	0xbe0a27b0	-0.13491702
73	0x3e9dde9e	0.30833906
74	0xbec95431	-0.39322045
75	0xbbc7fcfe	-0.006103157
76	0x3d9e5b33	0.077322386
77	0x3c9ef59c	0.019404225
78	0xbbccf21f	-0.006254449
79	0xbc1a529e	-0.009419112
80	0xbc01aa45	-0.007914131
81	0x3eaa4dda	0.3326252
82	0xbe8ead54	-0.27866614
83	0x3cbe0feb	0.02320095
84	0x3d685a42	0.0567267
85	0x3eacd0b6	0.33752984
86	0x3d00b733	0.031424712
87	0x3d339da5	0.043851513
88	0xbebeadff	-0.37242123
89	0x3e89bb08	0.26900506
90	0x3e03587b	0.12826721
91	0xbeb7fc85	-0.35934845
92	0x3deda6a6	0.11604051
93	0xbe31f9a7	-0.17380391
94	0x3d42ec40	0.047588587
95	0x3ec2cd3e	0.38047212
96	0x3d48593b	0.04891322
97	0x3eddf593	0.4335142
98	0xbe1f5c2b	-0.15562503
99	0x3dc60b31	0.09670103
100	0xbe943ae2	-0.28951174
101	0x3ebe5bc8	0.371794
102	0x3d41015e	0.047120444
103	0xbcbfe83e	-0.023426171
104	0xbed74b6c	-0.4204973
105	0xbe80089f	-0.25006577
106	0xbec371bc	-0.3817271
107	0x3db253d8	0.08707398
108	0xbd899f38	-0.06719822
109	0xbe0e2606	-0.13881692
110	0x3e9b50ca	0.30335075
111	0x3ec45ec6	0.38353556
112	0x3e24a13e	0.16077134
113	0x3c85c456	0.016328972
114	0x3ea33b85	0.31881347
115	0x3d25a96d	0.04044478
116	0xbe136562	-0.14394143
117	0x3e0957ba	0.13412371
118	0x3e841dac	0.25803888
119	0x3da9e938	0.08296436
120	0x3ddb849b	0.10718652
121	0xbea2e714	-0.31816924
122	0x3ed49e05	0.4152681
123	0xbe48fcad	-0.19627638
124	0x3e15cbc7	0.14628516
125	0x3e80ff37	0.25194713
126	0xbdead7d1	-0.11466945
127	0x3ed35bb4	0.412809
128	0x3edb8c77	0.42880604
129	0xbecd012c	-0.40039957
130	0x3e2e5dfc	0.1702804
131	0xbc92f694	-0.017939843
132	0xbdea48e4	-0.11439684
133	0xbec11399	-0.37710264
134	0x3ed71b85	0.42013183
135	0x3edb074b	0.42779002
136	0xbeaec207	-0.34132406
137	0x3e20fbaa	0.15721002
138	0xbe39d141	-0.1814623
139	0xbb1a5073	-0.0023546487
140	0xbeb3f0f0	-0.35144758
141	0x3dea2b1c	0.11434004
142	0x3ce3efef	0.02782437
143	0x3cc7de0b	0.02439787
144	0xbda0b676	-0.07847302
145	0x3ecce3da	0.40017587
146	0xbe18183a	-0.14852992
147	0x3e68640d	0.22694416
148	0x3dea8489	0.1145106
149	0xbe8b7d70	-0.2724414
150	0xbdf7bde3	-0.12096765
151	0x3e86a1d2	0.26295334
152	0x3dafb8b5	0.08580152
153	0x3e39acb6	0.1813229
154	0xbeaf3f77	-0.34228107
155	0xbe4959e2	-0.19663194
156	0x3db180b1	0.08667124
157	0xbed9fb42	-0.42574507
158	0x3ea126fa	0.3147505
159	0x3da77a05	0.0817757
160	0x3ec4187a	0.38299924
161	0xbe73b2c8	-0.23798668
162	0xbecfb6b1	-0.4056907
163	0x3e0691a4	0.13141495
164	0xbd9a9d67	-0.07549553
165	0x3d107717	0.035269823
166	0x3e1b8f3b	0.15191357
167	0x3e014342	0.12623313
168	0x3dd9e243	0.10638859
169	0xbe9fad3e	-0.3118686
170	0x3ed8d3ab	0.4234899
171	0x3eadb846	0.33929652
172	0x3e927b2f	0.28609607
173	0x3df345a2	0.11878516
174	0xbee60742	-0.44927412
175	0x3d2d4135	0.042298514
176	0xbe894792	-0.26812416
177	0xbec1be48	-0.37840486
178	0x3dc1d4b0	0.09464395
179	0x3d9e74ac	0.07737097
180	0xbde2315e	-0.11044572
181	0x3eb8c274	0.36085856
182	0x3dfeaa5b	0.124348365
183	0x3eacec47	0.33774015
184	0xbeb7cc50	-0.35898066
185	0x3e85665a	0.2605465
186	0xbc599e21	-0.01328233
187	0xbedc0bd8	-0.42977786
188	0x3ea89676	0.32927293
189	0xbe96599e	-0.29365247
190	0xbee7648c	-0.451939
191	0xbeca45ae	-0.39506286
192	0x3d3874f6	0.045033418
193	0x3ec37ff1	0.3818355
194	0x3e4fc69b	0.20290606
195	0xbd837b55	-0.06420008
196	0xbeaf36c8	-0.34221482
197	0x3e3ef71c	0.18648952
198	0xbe32919f	-0.17438363
199	0x3ee4fa01	0.44721988
200	0x3db05bb6	0.086112425
201	0x3e1c72e9	0.1527821
202	0xbe875c9a	-0.26437837
203	0x3eed1d2d	0.46311322
204	0x3e87e93b	0.26545128
205	0xbdb2363f	-0.08701753
206	0x3ec93ef8	0.39305854
207	0x3caa56c5	0.020793328
208	0xbec9d423	-0.3941966
209	0xbee23e89	-0.44188336
210	0x3e8abcd4	0.2709719
211	0x3edea0fd	0.434822
212	0x3d93a685	0.072094955
213	0x3c0dcd74	0.008654941
214	0x3ea76e8e	0.32701534
215	0xbe14b51d	-0.14522214
216	0x3cc4d9cb	0.024029633
217	0x3dea1499	0.1142971
218	0x3e696ce4	0.22795445
219	0x3d2a40c3	0.041565668
220	0x3c9e2327	0.019303871
221	0xbe9961b0	-0.29957342
222	0xbd914c1d	-0.070945956
223	0x3ebffecc	0.37499082
224	0xbeb159ea	-0.3463891
225	0xbead5f02	-0.33861548
226	0x3eb13f4e	0.3461861
227	0x3e90d95e	0.28290838
228	0x3e813400	0.25234985
229	0xbec4eecc	-0.38463438
230	0x3df0c779	0.117567964
231	0xbec5b3d9	-0.38613775
232	0xbde0de6f	-0.10979926
233	0x3e00bb4c	0.12571448
234	0xbecad0c1	-0.39612392
235	0x3ecef784	0.40423214
236	0xbe7f2853	-0.24917726
237	0xbabcdc32	-0.0014408885
238	0xbe1307a8	-0.1435839
239	0xbe0e4126	-0.1389204
240	0xbeda8094	-0.42676222
241	0x3e586c6d	0.21135111
242	0xbe7a5123	-0.24445014
243	0xbd53cfc6	-0.05171182
244	0x3de294a5	0.11063508
245	0xbe3d8627	-0.18508206
246	0x3e8da122	0.27661997
247	0xbe8d1e06	-0.2756197
248	0xbb8db967	-0.00432508
249	0xbe87e03e	-0.2653827
250	0x3ea23ce4	0.3168708
251	0xbea5dad8	-0.32393527
252	0xbeeda963	-0.46418294
253	0xbed192f4	-0.4093243
254	0x3e3d0aad	0.18461104
255	0x3d8f86f9	0.07008166

fc1.bias f4 [128]
0	0x3e51c8b4	0.20486718
1	0xbdae7b04	-0.08519557
2	0xbde8c95c	-0.11366531
3	0x3e9264b2	0.2859245
4	0x3d6bc0f8	0.057557076
5	0x3e61447b	0.2199878
6	0x3ca05b42	0.019574765
7	0x3eced409	0.40396145
8	0x3beff33a	0.007322696
9	0xbc90c8d1	-0.017673882
10	0xbd3e9283	-0.046526443
11	0x3e94584f	0.28973624
12	0x3e77b6ec	0.24190873
13	0xbe02f598	-0.12788999
14	0x3ec155ab	0.37760672
15	0xbe033824	-0.12814385
16	0x3e872375	0.2639424
17	0x3e8fab19	0.28060225
18	0xbe2fd0bc	-0.1716947
19	0xbe4154fb	-0.18880074
20	0x3e02f095	0.12787087
21	0xbe3e9c54	-0.18614322
22	0xbe3c8263	-0.18409114
23	0xbc0f4ae6	-0.0087458845
24	0xbc2e960a	-0.010655889
25	0x3ecd85fb	0.4014128
26	0x3e624e1b	0.22100107
27	0x3eb83b20	0.3598261
28	0xbe383e85	-0.179926
29	0x3e9172d1	0.2840791
30	0xbc58fa5d	-0.013243285
31	0x3d0d0758	0.03443083
32	0x3eb40d4c	0.35166395
33	0x3dfec4b2	0.124398604
34	0x3e29fa9b	0.16599505
35	0x3ead8288	0.3388865
36	0xbcfcdecd	-0.030867958
37	0x3ec32a44	0.38118184
38	0x3edbe08e	0.4294476
39	0xbe29828c	-0.16553706
40	0xbe6abf79	-0.22924604
41	0xbde4d7e2	-0.11173989
42	0x3e79b25f	0.2438445
43	0x3d0beb3b	0.03415988
44	0x3e9e8b2d	0.30965558
45	0xbe3c9c5b	-0.1841902
46	0xbdeb3be2	-0.11486031
47	0xbdd0a63a	-0.10187955
48	0x3e568b9a	0.20951691
49	0xbd1fd36d	-0.03901999
50	0x3d1cf8c0	0.038323164
51	0xbc9a63f1	-0.018846484
52	0x3e215287	0.15754138
53	0xbcebbea0	-0.02877742
54	0xbe32a3cf	-0.174453
55	0x3dede054	0.11615053
56	0xbc7ddf72	-0.015495168
57	0x3e99b750	0.3002267
58	0x3e6bbacf	0.2302048
59	0x3e6c5fe9	0.23083462
60	0xbdc76c29	-0.09737427
61	0x3e5921a7	0.21204244
62	0x3e86fa66	0.26362914
63	0x3e37c6d4	0.1794694
64	0x3eba7a2e	0.3642134
65	0x3e7df2cb	0.2479965
66	0xbe125996	-0.14291987
67	0xbc85a68c	-0.016314767
68	0x3ea4bc0b	0.32174715
69	0xbe26b44f	-0.1627972
70	0x3ed4ea7c	0.41585147
71	0x3dcaa61b	0.09894963
72	0x3db37d22	0.087641016
73	0xbe808005	-0.2509767
74	0xbc650490	-0.013978139
75	0x3cc6faa2	0.024289433
76	0xbd324b14	-0.04352863
77	0x3d3dabc1	0.046306375
78	0x3e07fdea	0.13280454
79	0x3e520285	0.20508774
80	0x3eb92a9c	0.3616532
81	0xbc9861b8	-0.018601283
82	0xbe1aa8b1	-0.15103413
83	0xbdf11526	-0.11771612
84	0xbb8e5bae	-0.004344425
85	0x3e5e453d	0.217061
86	0xbda552e3	-0.0807245
87	0x3d9d27a1	0.07673574
88	0x3e2fd255	0.17170079
89	0x3ec5a814	0.38604796
90	0xbd079545	-0.03310134
91	0xbd6716a7	-0.056418087
92	0x3dccfe5d	0.100094534
93	0x3e7d4045	0.24731548
94	0xbdd9eed0	-0.10641253
95	0x3dee1b70	0.11626327
96	0x3e9aaa2b	0.30207953
97	0xbdf8b1a7	-0.121432595
98	0xbe2b5523	-0.16731696
99	0xbe18c344	-0.14918238
100	0x3e544dcf	0.20732807
101	0x3e312b65	0.1730171
102	0x3eb4c6d1	0.35307935
103	0x3e106b05	0.14103325
104	0x3e51b1ed	0.2047803
105	0xbe3fd6ab	-0.18734233
106	0xbdcba1c5	-0.099429645
107	0xbe394d3d	-0.1809587
108	0xbd388bb9	-0.045055125
109	0x3e2b3ee3	0.16723208
110	0x3dbd3efe	0.092405304
111	0x3cfdabec	0.030965768
112	0x3e8b3c91	0.27194646
113	0x3eb63c81	0.35593036
114	0xbda7e8a3	-0.08198669
115	0x3e8c725e	0.27431005
116	0xbc571d3e	-0.0131295305
117	0x3e1c4765	0.1526161
118	0xbe1bf668	-0.15230715
119	0x3e873245	0.2640554
120	0x3e1a1965	0.1504875
121	0x3ebc8924	0.3682338
122	0x3e8ce848	0.27520967
123	0x3d1aa23a	0.037752368
124	0x3d34c459	0.044132564
125	0xbdcbe483	-0.099556945
126	0x3db72e2a	0.08944352
127	0x3eb31cde	0.3498296

fc2.weight f4 [64, 128]
0	0x3d6bcd63	0.05756892
1	0x3daf72a9	0.085667916
2	0x3de1ac45	0.11019186
3	0xbdf6b811	-0.12046827
4	0x3e0689e5	0.1313854
5	0x3dfd0238	0.12353939
6	0xbe36bc75	-0.17845328
7	0xbe212ee5	-0.15740545
8	0x3dcda1b1	0.10040606
9	0xbda40467	-0.08008652
10	0x3c45a8cb	0.012064169
11	0x3e21af81	0.15789606
12	0xbd79ca0a	-0.060983695
13	0xbe2baa8b	-0.16764276
14	0xbc85b14e	-0.016319897
15	0x3d8e2fbc	0.06942698
16	0x3cd1ea5b	0.025624445
17	0xbd5c069c	-0.05371724
18	0xbd387e2f	-0.045042213
19	0x3cffbf10	0.031219035
20	0xbd8494b6	-0.06473677
21	0xbd8a64a0	-0.06757474
22	0xbe02b60a	-0.12764755
23	0x3da00105	0.078126945
24	0x3d689d2e	0.056790523
25	0xbdc98361	-0.09839512
26	0xbb22700c	-0.0024786023
27	0x3b99185d	0.004672094
28	0xbd251d45	-0.040311117
29	0xbdd7545a	-0.10514136
30	0xbd60a530	-0.054845035
31	0x3e436a13	0.19083433
32	0xbcf13d34	-0.02944813
33	0x38f32b30	0.00011595187
34	0xbd237050	-0.03990203
35	0xbdb009c6	-0.08595614
36	0x3e3e2f1a	0.18572655
37	0xbd00bca5	-0.031429905
38	0xbd492ca9	-0.049114857
39	0xbe37665c	-0.17910141
40	0xbd802922	-0.062578455
41	0x3e3ba192	0.18323353
42	0xbc918b0e	-0.017766502
43	0x3dcc5307	0.09976774
44	0x3d868aa8	0.06569415
45	0x3e26c06d	0.16284342
46	0xbd93dd47	-0.0721994
47	0xbcd600db	-0.026123455
48	0xbd4c30f1	-0.04985136
49	0xbd5e4901	-0.05426884
50	0x3d805ded	0.06267915
51	0x3dd4a36e	0.10382734
52	0xbd1d0502	-0.038334854
53	0x3e229afa	0.15879431
54	0x3d675bc9	0.056484018
55	0x3d29441e	0.041324727
56	0x3d1596d1	0.036520783
57	0xbd9bd3b0	-0.076087356
58	0x3de2799d	0.11058352
59	0x3d7e1af5	0.062037427
60	0xbdda6ee4	-0.10665682
61	0xbd0b860a	-0.034063376
62	0x3d055bd7	0.03255829
63	0xbe06d8b5	-0.13168605
64	0x3dfaab2c	0.1223968
65	0x3d82cc49	0.063866206
66	0x3e14ec4c	0.14543265
67	0xbe105c99	-0.14097823
68	0x3dd7db0c	0.10539827
69	0xbe4f96ea	-0.20272413
70	0x3dcc6315	0.09979836
71	0xbe1152c4	-0.14191729
72	0x3cd61c4a	0.026136536
73	0xbc3d349b	-0.011548187
74	0x3d468297	0.048464384
75	0x3d66913e	0.056290857
76	0xbe2db78f	-0.16964553
77	0x3e00674d	0.12539406
78	0x3d892283	0.06696036
79	0x3dc09f58	0.094053924
80	0xbdb93ce3	-0.09044816
81	0x3def7d03	0.11693766
82	0xbd4c9730	-0.04994887
83	0x3da27593	0.07932582
84	0x3e1bb879	0.1520709
85	0xbdc37a1e	-0.095447764
86	0xbd641e8e	-0.0556932
87	0xbde5b664	-0.11216429
88	0x3e3a47c0	0.18191433
89	0x3d9ba96d	0.07600675
90	0x3e02b71b	0.12765162
91	0x3ddc3fc1	0.107543476
92	0x3d308ad7	0.043101158
93	0xbdb2d415	-0.08731858
94	0x3dd6303a	0.10458417
95	0xbe15f343	-0.14643578
96	0x3e2dae81	0.16961099
97	0xbdc90f46	-0.09817366
98	0x3e2f176b	0.17098777
99	0x3d8fcefe	0.070219025
100	0xbd555bca	-0.05208949
101	0x3e26bba3	0.16282515
102	0x3dfc09bb	0.123065434
103	0x3c73c99d	0.014879611
104	0xbe22db5c	-0.15903991
105	0x3e1ec5ea	0.15505186
106	0x3d596a82	0.05308009
107	0x3e00da8e	0.12583372
108	0x3db9cfa5	0.09072808
109	0x3e06887c	0.13138002
110	0xbdf9bb9b	-0.12193986
111	0x3e4c845f	0.1997237
112	0xbd8c856f	-0.06861388
113	0xbe1a8612	-0.15090206
114	0x3c40a3b7	0.011757783
115	0x3caac5ae	0.020846214
116	0xbd5b1b30	-0.053492725
117	0xbe34bc23	-0.17649893
118	0xbe2a8432	-0.16651991
119	0x3dbdf575	0.09275333
120	0x3bd273e7	0.006422508
121	0x3e4852f6	0.19562897
122	0x3e218f47	0.15777312
123	0xbb506cba	-0.0031803087
124	0xbe1a7f8a	-0.15087715
125	0xbe3a94cd	-0.18220825
126	0x3d004590	0.03131634
127	0x3d7aa05e	0.061188094
128	0xbe0a732e	-0.135205
129	0x3e238d9f	0.15971993
130	0xbdcf0f8e	-0.10110389
131	0xbdfde669	-0.12397463
132	0xba357206	-0.0006921593
133	0x3dcaee4c	0.09908733
134	0x3dfbfb8f	0.1230384
135	0x3e275bee	0.16343662
136	0x3d3cf9b0	0.046136558
137	0x3d8257f6	0.063644335
138	0xbda03f96	-0.07824628
139	0x3cfdd137	0.03098355
140	0xbdd59639	-0.10429043
141	0x3d83cff5	0.06436149
142	0x3d24d619	0.040243242
143	0xbe107e87	-0.14110766
144	0x3bbd5ce2	0.0057788948
145	0xbe0f0949	-0.13968386
146	0x3e3aaa50	0.18229032
147	0xbe0577e1	-0.13034011
148	0x3db1441a	0.086555675
149	0x3da87682	0.082257286
150	0x3d813f81	0.063109405
151	0xbc89dc0a	-0.016828556
152	0xbdbc7406	-0.09201817
153	0x3e046114	0.12927657
154	0xbd693c33	-0.056942176
155	0xbdb07c35	-0.086174406
156	0x3d296274	0.041353658
157	0x3d85b090	0.06527817
158	0x3de8669b	0.113476954
159	0x3e124e1a	0.14287606
160	0x3df7a0ee	0.12091242
161	0x3e0f9747	0.14022551
162	0x3e23e765	0.16006239
163	0x3b5f555c	0.0034077978
164	0x3e14c167	0.14526902
165	0xbe28f09d	-0.16498037
166	0x3d927d36	0.07152788
167	0x3d318417	0.04333886
168	0xbe1bcb7d	-0.15214343
169	0xbd94bbdd	-0.072623946
170	0xbe0db95b	-0.13840239
171	0x3e033150	0.1281178
172	0x3b624cc0	0.003453061
173	0xbd04d38a	-0.032428302
174	0xbd92275c	-0.071364135
175	0xbde66910	-0.11250508
176	0xbe31a5ac	-0.17348355
177	0xbd6fcdf0	-0.058546007
178	0xbdfabfc7	-0.1224361
179	0xbc07ea46	-0.008295601
180	0x3e1dee85	0.15423019
181	0x3d35ca36	0.044382297
182	0x3d9d07fc	0.076675385
183	0xbcffc7ed	-0.031223262
184	0xbcaae783	-0.020862347
185	0x3dcbad14	0.099451214
186	0x3d82ad58	0.06380719
187	0xbe2696ee	-0.16268513
188	0xbe10ffee	-0.1416013
189	0xbd4fe796	-0.050757967
190	0x3e4c3378	0.19941509
191	0x3d1a0b33	0.037608337
192	0xbd53017e	-0.051515095
193	0xbd9002da	-0.07031794
194	0xbe29c232	-0.16577986
195	0x3e35e514	0.17763168
196	0xbdea7d30	-0.11449659
197	0x3ced10ba	0.02893864
198	0xbd8c14af	-0.068398826
199	0xbd6389b3	-0.055551242
200	0xbd57c90e	-0.052681975
201	0xbcfa5a77	-0.030560715
202	0x3e0c9c77	0.13731562
203	0xbe1ddc0c	-0.15415972
204	0x3db2a4e2	0.08722855
205	0xbdfb526f	-0.12271582
206	0xbdcb5c4a	-0.09929712
207	0x3dc70f23	0.09719684
208	0xbe09a9c6	-0.1344367
209	0xbe153396	-0.1457046
210	0x3d6ede9d	0.05831777
211	0x3d111e0e	0.035429053
212	0x3d878d4c	0.06618747
213	0x3c2f7f37	0.010711483
214	0xbd9b8231	-0.075931914
215	0x3dd7104f	0.105011575
216	0xbd7b4e93	-0.06135423
217	0x3dfb89ac	0.12282118
218	0xbe36a649	-0.1783687
219	0xbe1426f6	-0.14467987
220	0x3dd34e7f	0.10317706
221	0xbd8f9b55	-0.07012049
222	0x3de9b6f1	0.114118464
223	0x3e1aec1d	0.15129133
224	0x3e209b14	0.15684158
225	0xbe2a474c	-0.1662876
226	0x3c89eeb6	0.016837459
227	0xbdd8abc4	-0.10579637
228	0xbc1a9e32	-0.009437131
229	0x3d960a17	0.07326143
230	0xbd84e8cd	-0.06489716
231	0x3e082d3c	0.13298506
232	0x3e2521e8	0.16126215
233	0x3e031d69	0.12804188
234	0x3e37a8b2	0.17935446
235	0xbde10c2d	-0.109886505
236	0x3de3d7bd	0.11125133
237	0xbdcf8d37	-0.101343565
238	0xbd809aff	-0.06279563
239	0xbe198c96	-0.14995036
240	0x3e3e8bcd	0.18608017
241	0x3e1500e6	0.14551124
242	0xbdb8bc62	-0.09020306
243	0xbd5200c5	-0.051270265
244	0xbe45bb73	-0.19309787
245	0xbe20a611	-0.1568835
246	0x3db14e26	0.08657484
247	0xbe33cf45	-0.17559536
248	0xbe4a4200	-0.1975174
249	0xbcedcdc8	-0.029028788
250	0xbd175620	-0.03694737
251	0xbe3befc5	-0.18353184
252	0xbe3f702b	-0.18695132
253	0x3ce9f850	0.028560787
254	0xbd1714ad	-0.036884952
255	0x3dfdaf03	0.123868965

fc2.bias f4 [64]
0	0x3dbdaf4f	0.09261953
1	0x3d9a3bd2	0.07530941
2	0xbd9e56c5	-0.07731394
3	0x3ddad8ad	0.10685859
4	0x3dcb3a00	0.09923172
5	0x3dbde9c1	0.09273101
6	0x3d6a6ff7	0.057235684
7	0x3a11c9fa	0.0005561408
8	0x3d980bdd	0.07424138
9	0x3ab984e6	0.0014153987
10	0x3c988e1e	0.018622454
11	0x3d8eaa38	0.069660604
12	0x3d91249a	0.07087059
13	0x3ca4f4c8	0.020136252
14	0xbcc95dcf	-0.024580864
15	0x3dc98c3a	0.09841199
16	0xbda5885a	-0.080826476
17	0x3dbe70fa	0.09298892
18	0x3c6c678a	0.0144289825
19	0x3d731c70	0.059353292
20	0xbc199e10	-0.009376064
21	0x3de07b24	0.10960987
22	0x3e2a0210	0.1660235
23	0x3d16bde3	0.036802184
24	0x3ca0f058	0.019645855
25	0xbd1e10e5	-0.03859033
26	0x3d5689dc	0.052377567
27	0x3cd1e210	0.02562049
28	0x3c1bc91e	0.009508399
29	0x3d1ba225	0.03799643
30	0xbab2b7af	-0.0013635064
31	0xbd48d10d	-0.04902749
32	0x3d7c0403	0.061527263
33	0xbc1d3084	-0.009594087
34	0xbc885166	-0.016640376
35	0xbd0c0f12	-0.03419406
36	0x3c7b5d96	0.015342137
37	0xbd9db757	-0.07700985
38	0xbd7a786e	-0.061150007
39	0x3caec4a7	0.021334006
40	0x3d6b1362	0.05739153
41	0x3da4a841	0.080399044
42	0x3dccbb43	0.09996655
43	0xbd897666	-0.06712036
44	0x3dc43a03	0.09581377
45	0xbcb857d6	-0.022502821
46	0x3bf33482	0.007422031
47	0x3d827744	0.06370404
48	0xbc4675b1	-0.012113021
49	0x3d6ac2fc	0.057314858
50	0x3e00b5c8	0.12569344
51	0xbd63061b	-0.055425745
52	0xbd88d46e	-0.06681143
53	0x3d9f74ad	0.07785926
54	0x3dfa8047	0.12231498
55	0x3d15554c	0.0364583
56	0xbd0b0c70	-0.03394741
57	0x3d29bf55	0.041442234
58	0x3d5df0b1	0.05418462
59	0x3afd42ae	0.001932224
60	0x3db019a2	0.08598639
61	0xbd3955a5	-0.045247693
62	0x3e1dc40c	0.15406817
63	0x3daa820c	0.08325586

fc3.weight f4 [9, 64]
0	0xbe6ba55f	-0.23012303
1	0xbe09c850	-0.1345532
2	0x3d71f9e4	0.059076205
3	0x3e361b8a	0.17783943
4	0xbe2002d5	-0.1562608
5	0xbd88317f	-0.06650066
6	0xbe2234fd	-0.15840526
7	0xbe72672d	-0.23672171
8	0xbe14014c	-0.1445362
9	0xbd6ee19f	-0.058320638
10	0xbdf93396	-0.12168042
11	0x3e4d1653	0.20028047
12	0x3dff3234	0.12460747
13	0x3e1b778a	0.1518232
14	0xbdad1dec	-0.08452973
15	0xbe1fed73	-0.15617923
16	0xbe301701	-0.17196275
17	0x3e6cfaff	0.23142622
18	0xbd4380b1	-0.04773015
19	0xbe33c7fa	-0.17556754
20	0xbdc0c670	-0.09412849
21	0xbe3a3ded	-0.18187685
22	0x3e094dca	0.1340858
23	0x3e4abced	0.19798632
24	0xbe42a8ab	-0.19009654
25	0x3e470cfe	0.1943855
26	0xbe1d1d0b	-0.1534311
27	0xbe501c5e	-0.20323321
28	0x3e0ee45c	0.139543
29	0xbe170f63	-0.14751963
30	0xbd293c29	-0.04131714
31	0xbdb8dbaa	-0.090262726
32	0xbe819994	-0.25312483
33	0xbe758341	-0.2397585
34	0x3e60960a	0.21932235
35	0xbe1365a5	-0.14394243
36	0x3e5ef77b	0.21774094
37	0xbe385056	-0.17999396
38	0xbdd565e8	-0.10419828
39	0x3e401747	0.1875888
40	0xbe023d11	-0.12718607
41	0x3d0094bc	0.031391844
42	0xbe012eb8	-0.12615478
43	0xbe02bf31	-0.12768246
44	0x3e419dd5	0.18907864
45	0x3e3b9ca2	0.1832147
46	0x3ccca4aa	0.024980862
47	0x3e501813	0.20321684
48	0xbe46aa6a	-0.19400945
49	0xbdd1d3fe	-0.102455124
50	0xbe7fc63b	-0.24977963
51	0xbe7b270b	-0.24526612
52	0xbd09997d	-0.033593643
53	0xbe1c0807	-0.15237437
54	0xbd843146	-0.06454711
55	0xbe51c398	-0.2048477
56	0xbe1dc6c2	-0.15407851
57	0xbe0f879d	-0.14016576
58	0xbdbc9dc5	-0.0920978
59	0xbde383ce	-0.11109124
60	0xbe2fad0d	-0.17155857
61	0xbe231f7e	-0.15929982
62	0x3c49bd62	0.012313219
63	0xbe6b099a	-0.22952881
64	0xbdd3208c	-0.10308942
65	0xbd65330e	-0.055956893
66	0xbe5213c2	-0.2051535
67	0x3de9c3f3	0.114143275
68	0x3caebd30	0.021330446
69	0x3e08eedd	0.13372369
70	0xbe40e046	-0.18835554
71	0xbe689272	-0.22712114
72	0xbe540230	-0.2070396
73	0x3e4fb86f	0.202852
74	0x3e24efe5	0.16107138
75	0x3e05a6e4	0.13051945
76	0xbe3d69e6	-0.18497428
77	0xbe187fd4	-0.14892513
78	0xbe2a8038	-0.16650474
79	0xbe4fd845	-0.20297344
80	0xbdb23db4	-0.08703175
81	0xbd15160a	-0.03639797
82	0xbe5d289c	-0.21597522
83	0xbd6fa20a	-0.058504142
84	0xbe2eabe8	-0.17057765
85	0xbda65624	-0.08121899
86	0x3df69ad5	0.120412506
87	0x3e780c20	0.24223375
88	0xbd5729ab	-0.052529972
89	0xbdd1611f	-0.102236025
90	0xbe3b56c4	-0.18294817
91	0x3e80bd14	0.25144255
92	0xbde1e487	-0.11029916
93	0xbe69d539	-0.22835244
94	0x3e7761b9	0.24158372
95	0xbd9901ff	-0.07471084
96	0xbe1e197b	-0.15439408
97	0x3e5ea89e	0.2174401
98	0xbe6be435	-0.23036273
99	0xbe3cc13e	-0.18433091
100	0x3e46127f	0.19342993
101	0x3e519aab	0.20469157
102	0x3e5a096d	0.21292658
103	0xbe17fca4	-0.14842469
104	0xbe0bea29	-0.13663544
105	0xbd5afc73	-0.05346341
106	0x3e527bd9	0.20555057
107	0xbd98b9a5	-0.07457284
108	0x3dd5d4f4	0.10441008
109	0xb9a9ad64	-0.00032363378
110	0xbe660ca5	-0.22465761
111	0xbe8038a3	-0.2504321
112	0xbdb78ae1	-0.08962036
113	0x3e62d9d6	0.2215341
114	0x3dda481b	0.10658284
115	0xbe5613df	-0.20906018
116	0xbd168f28	-0.03675762
117	0x3da88a12	0.0822946
118	0xbe45d754	-0.19320422
119	0x3e4f63ba	0.20252886
120	0xbde64ed4	-0.11245504
121	0x3cd39a5f	0.025830446
122	0xbe0541eb	-0.13013427
123	0xbe4eb00e	-0.20184347
124	0x3e228368	0.1587044
125	0xbe78fd1d	-0.24315305
126	0xbdf38100	-0.11889839
127	0xbe4a0569	-0.19728626
128	0x3e2ad39f	0.1668229
129	0x3e4bb3bf	0.19892786
130	0xbdc89ff9	-0.09796137
131	0xbde022f8	-0.1094417
132	0xbe38d53a	-0.1805009
133	0x3e857fa2	0.2607394
134	0xbe361998	-0.177832
135	0x3e2aec01	0.16691591
136	0x3e26e757	0.16299187
137	0xbb5c2413	-0.0033590838
138	0xbda985c4	-0.08277467
139	0xbe7cee89	-0.24700369
140	0xbe6dd672	-0.23226336
141	0xbe566a02	-0.20938876
142	0x3e4eac16	0.20182833
143	0x3e680d50	0.22661328
144	0xbe181c79	-0.14854611
145	0x3e30d43e	0.17268464
146	0xbe20e3f3	-0.15711956
147	0x3e6609e6	0.22464713
148	0x3e67c7fb	0.2263488
149	0xbe079554	-0.13240558
150	0xbdebe16d	-0.11517606
151	0xbe3e61b0	-0.18591952
152	0xbe400252	-0.18750885
153	0x3e3cd4b8	0.18440521
154	0x3e530cd0	0.20610356
155	0xbdec9d40	-0.115534306
156	0xbe54dc79	-0.20787229
157	0x3b11cf42	0.002224878
158	0x3cfb81e8	0.030701593
159	0xbbc876bf	-0.0061176713
160	0xbd0d0a67	-0.03443375
161	0xbd593569	-0.05302945
162	0x3e02f9ae	0.12790558
163	0xbe00358b	-0.12520425
164	0xbcd6dfd9	-0.026229786
165	0xbe2a55be	-0.1663427
166	0x3e4f8d08	0.20268643
167	0xbe332915	-0.1749614
168	0xbe13b6d9	-0.1442522
169	0x3bdf9d02	0.0068241367
170	0xbde27504	-0.11057475
171	0x3e3ba2dc	0.18323845
172	0xbd85bff3	-0.06530752
173	0xbdb50384	-0.08838561
174	0xbe3c7160	-0.18402624
175	0xbdd0b3ab	-0.10190519
176	0xbe0cfce8	-0.13768351
177	0x3e3ec0a7	0.18628179
178	0x3debb85f	0.11509775
179	0xbd7aa7e2	-0.06119526
180	0xbe4354b9	-0.19075288
181	0xbe66f21e	-0.22553298
182	0xbe255700	-0.16146469
183	0x3e431aee	0.19053242
184	0x3daf6c12	0.08565535
185	0xbc4f6249	-0.01265771
186	0x3e33667e	0.17519566
187	0xbbcf9b2e	-0.0063356375
188	0xbe08c82c	-0.1335761
189	0x3e802ef8	0.25035834
190	0xbcab4853	-0.02090851
191	0x3e81d5c3	0.253584
192	0x3e3ad20d	0.1824419
193	0xbe080ea8	-0.13286841
194	0xbdd4a2ab	-0.10382589
195	0x3e7ab0b1	0.24481465
196	0xbe19c089	-0.15014853
197	0xbe676371	-0.22596528
198	0xbe30b382	-0.17255977
199	0xbdfc7da3	-0.12328651
200	0x3e080408	0.13282788
201	0xbdceaca0	-0.10091519
202	0xbdc96385	-0.09833435
203	0xbe42a87e	-0.19009587
204	0x3e2ed556	0.17073569
205	0xbe47ff2f	-0.19530939
206	0xbd26c91f	-0.040719148
207	0x3e6a9e42	0.22911933
208	0x3e362c68	0.17790377
209	0xbdd10032	-0.102051154
210	0x3e7e576d	0.24838038
211	0xbe34306d	-0.17596598
212	0xbe559e3d	-0.20861144
213	0x3e69b6a2	0.22823575
214	0xbe086835	-0.13321002
215	0xbe2b3f86	-0.16723451
216	0x3dab5af3	0.083669566
217	0x3e4f0b34	0.20219117
218	0xbe4efca0	-0.20213556
219	0xbe29bd62	-0.1657615
220	0x3e7f98f1	0.24960686
221	0xbe666fcf	-0.22503589
222	0x3e3f141c	0.18660015
223	0x3e3fbd3c	0.18724531
224	0xbe222b04	-0.15836722
225	0xbd5a90c6	-0.053360723
226	0xbd573fa7	-0.052550938
227	0x3e1b8497	0.15187298
228	0x3e696fb7	0.22796522
229	0xbe554c82	-0.20829967
230	0xbdff344d	-0.124611475
231	0xbe52cdac	-0.2058627
232	0xbdd661c8	-0.10467869
233	0xbe7abb1a	-0.24485436
234	0xbd4705a4	-0.048589364
235	0xbe52e412	-0.20594814
236	0xbe459c17	-0.19297825
237	0xbe26b9fe	-0.16281888
238	0x3e03343d	0.12812896
239	0xbe6614e7	-0.22468911
240	0x3e69c97e	0.2283077
241	0xbe192a98	-0.14957654
242	0x3e5971a7	0.21234761
243	0xbc26f623	-0.0101905195
244	0xbd6631f7	-0.056199994
245	0xbdeef193	-0.116671704
246	0xbe375f98	-0.1790756
247	0xbdb99240	-0.09061098
248	0xbe2b4b1e	-0.16727874
249	0xbe380899	-0.1797203
250	0x3e7537d0	0.23947072
251	0xbe0359fb	-0.12827294
252	0xbe11b20b	-0.14228074
253	0xbe08f9fe	-0.13376614
254	0x3e674c45	0.22587688
255	0x3e668700	0.22512436

fc3.bias f4 [9]
0	0x3ddc67cd	0.10761986
1	0xbd67cb93	-0.056590628
2	0xbd9385e5	-0.07203273
3	0xbde2ba10	-0.11070645
4	0xbcd32110	-0.025772601
5	0xbcbfb56e	-0.023401942
6	0xbd9e9abe	-0.077443585
7	0xbd6225d6	-0.055211864
8	0x3da8bdec	0.0823935
